…
   macro avg       0.94      0.94      0.94       375
weighted avg       0.94      0.94      0.94       375

Random Forest Classifier accuracy: 92.26666666666667 %

Process finished with exit code 0


Cloud.py
-- download Matplotlib, word cloud and pandas for this
Output:
--python Cloud.py
Process finished with exit code 0
3 word cloud plots 

LSTM.py
-- Install Keras, Tensorflow
-- Matplotlib is used too for model accuracy and loss
-- Ignore any warnings
Output:
--python LSTM.py
Layer (type)                 Output Shape              Param #   
=================================================================
inputs (InputLayer)          (None, 150)               0         
_________________________________________________________________
embedding_1 (Embedding)      (None, 150, 50)           50000     
_________________________________________________________________
lstm_1 (LSTM)                (None, 64)                29440     
_________________________________________________________________
FC1 (Dense)                  (None, 256)               16640     
_________________________________________________________________
activation_1 (Activation)    (None, 256)               0         
_________________________________________________________________
dropout_1 (Dropout)          (None, 256)               0         
_________________________________________________________________
out_layer (Dense)            (None, 3)                 771       
_________________________________________________________________
activation_2 (Activation)    (None, 3)                 0         
=================================================================
Total params: 96,851
Trainable params: 96,851
Non-trainable params: 0
_________________________________________________________________

Train on 900 samples, validate on 225 samples
Epoch 1/10
128/900 [===>..........................] - ETA: 11s - loss: 1.0988 - acc: 0.3281
256/900 [=======>......................] - ETA: 5s - loss: 1.0987 - acc: 0.3125 
…
